…
11: 2025-01-24,14:23:30 | INFO | Loaded ViT-B-32 model config.
10: 2025-01-24,14:23:30 | INFO | Loaded ViT-B-32 model config.
 9: 2025-01-24,14:23:30 | INFO | Loaded ViT-B-32 model config.
 8: 2025-01-24,14:23:30 | INFO | Loaded ViT-B-32 model config.
 5: 2025-01-24,14:23:30 | INFO | Loaded ViT-B-32 model config.
 7: 2025-01-24,14:23:30 | INFO | Loaded ViT-B-32 model config.
 6: 2025-01-24,14:23:30 | INFO | Loaded ViT-B-32 model config.
 4: 2025-01-24,14:23:30 | INFO | Loaded ViT-B-32 model config.
 0: 2025-01-24,14:23:31 | INFO | Model:
 0: 2025-01-24,14:23:31 | INFO | CLIP(
 0:   (visual): VisionTransformer(
 0:     (conv1): Conv2d(3, 768, kernel_size=(32, 32), stride=(32, 32), bias=False)
 0:     (patch_dropout): Identity()
 0:     (ln_pre): LayerNorm((768,), eps=1e-05, elementwise_affine=True)
 0:     (transformer): Transformer(
 0:       (resblocks): ModuleList(
 0:         (0-11): 12 x ResidualAttentionBlock(
 0:           (ln_1): LayerNorm((768,), eps=1e-05, elementwise_affine=True)
 0:           (attn): MultiheadAttention(
 0:             (out_proj): NonDynamicallyQuantizableLinear(in_features=768, out_features=768, bias=True)
 0:           )
 0:           (ls_1): Identity()
 0:           (ln_2): LayerNorm((768,), eps=1e-05, elementwise_affine=True)
 0:           (mlp): Sequential(
 0:             (c_fc): Linear(in_features=768, out_features=3072, bias=True)
 0:             (gelu): GELU(approximate='none')
 0:             (c_proj): Linear(in_features=3072, out_features=768, bias=True)
 0:           )
 0:           (ls_2): Identity()
 0:         )
 0:       )
 0:     )
 0:     (ln_post): LayerNorm((768,), eps=1e-05, elementwise_a
 0: ffine=True)
 0:   )
 0:   (transformer): Transformer(
 0:     (resblocks): ModuleList(
 0:       (0-11): 12 x ResidualAttentionBlock(
 0:         (ln_1): LayerNorm((512,), eps=1e-05, elementwise_affine=True)
 0:         (attn): MultiheadAttention(
 0:           (out_proj): NonDynamicallyQuantizableLinear(in_features=512, out_features=512, bias=True)
 0:         )
 0:         (ls_1): Identity()
 0:         (ln_2): LayerNorm((512,), eps=1e-05, elementwise_affine=True)
 0:         (mlp): Sequential(
 0:           (c_fc): Linear(in_features=512, out_features=2048, bias=True)
 0:           (gelu): GELU(approximate='none')
 0:           (c_proj): Linear(in_features=2048, out_features=512, bias=True)
 0:         )
 0:         (ls_2): Identity()
 0:       )
 0:     )
 0:   )
 0:   (token_embedding): Embedding(49408, 512)
 0:   (ln_final): LayerNorm((512,), eps=1e-05, elementwise_affine=True)
 0: )
 0: 2025-01-24,14:23:31 | INFO | Params:
 0: 2025-01-24,14:23:31 | INFO |   accum_freq: 1
 0: 2025-01-24,14:23:31 | INFO |   aug_cfg: {}
 0: 2025-01-24,14:23:31 | INFO |   batch_size: 256
 0: 2025-01-24,14:23:31 | INFO |   beta1: 0.9
 0: 2025-01-24,14:23:31 | INFO |   beta2: 0.98
 0: 2025-01-24,14:23:31 | INFO |   cache_dir: None
 0: 2025-01-24,14:23:31 | INFO |   checkpoint_path: ./logs/2025_01_24-14_23_24-model_ViT-B-32-lr_0.0005-b_256-j_4-p_amp/checkpoints
…
